…
          "output_type": "display_data",
          "data": {
            "text/plain": [
              "generation_config.json:   0%|          | 0.00/293 [00:00<?, ?B/s]"
            ],
            "application/vnd.jupyter.widget-view+json": {
              "version_major": 2,
              "version_minor": 0,
              "model_id": "21caa0d4c02341299335e6d6961d5179"
            }
          },
          "metadata": {}
        },
        {
          "output_type": "execute_result",
          "data": {
            "text/plain": [
              "MarianMTModel(\n",
              "  (model): MarianModel(\n",
              "    (shared): Embedding(59514, 512, padding_idx=59513)\n",
              "    (encoder): MarianEncoder(\n",
              "      (embed_tokens): Embedding(59514, 512, padding_idx=59513)\n",
              "      (embed_positions): MarianSinusoidalPositionalEmbedding(512, 512)\n",
              "      (layers): ModuleList(\n",
              "        (0-5): 6 x MarianEncoderLayer(\n",
              "          (self_attn): MarianAttention(\n",
              "            (k_proj): Linear(in_features=512, out_features=512, bias=True)\n",
              "            (v_proj): Linear(in_features=512, out_features=512, bias=True)\n",
              "            (q_proj): Linear(in_features=512, out_features=512, bias=True)\n",
              "            (out_proj): Linear(in_features=512, out_features=512, bias=True)\n",
              "          )\n",
              "          (self_attn_layer_norm): LayerNorm((512,), eps=1e-05, elementwise_affine=True)\n",
              "          (activation_fn): SiLU()\n",
              "          (fc1): Linear(in_features=512, out_features=2048, bias=True)\n",
              "          (fc2): Linear(in_features=2048, out_features=512, bias=True)\n",
              "          (final_layer_norm): LayerNorm((512,), eps=1e-05, elementwise_affine=True)\n",
              "        )\n",
              "      )\n",
              "    )\n",
              "    (decoder): MarianDecoder(\n",
              "      (embed_tokens): Embedding(59514, 512, padding_idx=59513)\n",
              "      (embed_positions): MarianSinusoidalPositionalEmbedding(512, 512)\n",
              "      (layers): ModuleList(\n",
              "        (0-5): 6 x MarianDecoderLayer(\n",
              "          (self_attn): MarianAttention(\n",
              "            (k_proj): Linear(in_features=512, out_features=512, bias=True)\n",
              "            (v_proj): Linear(in_features=512, out_features=512, bias=True)\n",
              "            (q_proj): Linear(in_features=512, out_features=512, bias=True)\n",
              "            (out_proj): Linear(in_features=512, out_features=512, bias=True)\n",
              "          )\n",
              "          (activation_fn): SiLU()\n",
              "          (self_attn_layer_norm): LayerNorm((512,), eps=1e-05, elementwise_affine=True)\n",
              "          (encoder_attn): MarianAttention(\n",
              "            (k_proj): Linear(in_features=512, out_features=512, bias=True)\n",
              "            (v_proj): Linear(in_features=512, out_features=512, bias=True)\n",
              "            (q_proj): Linear(in_features=512, out_features=512, bias=True)\n",
              "            (out_proj): Linear(in_features=512, out_features=512, bias=True)\n",
              "          )\n",
              "          (encoder_attn_layer_norm): LayerNorm((512,), eps=1e-05, elementwise_affine=True)\n",
              "          (fc1): Linear(in_features=512, out_features=2048, bias=True)\n",
              "          (fc2): Linear(in_features=2048, out_features=512, bias=True)\n",
              "          (final_layer_norm): LayerNorm((512,), eps=1e-05, elementwise_affine=True)\n",
              "        )\n",
              "      )\n",
              "    )\n",
              "  )\n",
              "  (lm_head): Linear(in_features=512, out_features=59514, bias=False)\n",
              ")"
            ]
          },
          "metadata": {},
          "execution_count": 11
        }
      ]
    },
    {
      "cell_type": "code",
      "source": [
        "\n",
        "def translate(texts, model, tokenizer, device='cpu', max_length=128):\n",
        "    batch = tokenizer(texts, return_tensors=\"pt\", padding=True, truncation=True, max_length=max_length).to(device)\n",
…
          "output_type": "display_data",
          "data": {
            "text/plain": [
              "generation_config.json:   0%|          | 0.00/293 [00:00<?, ?B/s]"
            ],
            "application/vnd.jupyter.widget-view+json": {
              "version_major": 2,
              "version_minor": 0,
              "model_id": "266db5c1c4b945f2b955492d3f242da5"
            }
          },
          "metadata": {}
        },
        {
          "output_type": "execute_result",
          "data": {
            "text/plain": [
              "MarianMTModel(\n",
              "  (model): MarianModel(\n",
              "    (shared): Embedding(58089, 512, padding_idx=58088)\n",
              "    (encoder): MarianEncoder(\n",
              "      (embed_tokens): Embedding(58089, 512, padding_idx=58088)\n",
              "      (embed_positions): MarianSinusoidalPositionalEmbedding(512, 512)\n",
              "      (layers): ModuleList(\n",
              "        (0-5): 6 x MarianEncoderLayer(\n",
              "          (self_attn): MarianAttention(\n",
              "            (k_proj): Linear(in_features=512, out_features=512, bias=True)\n",
              "            (v_proj): Linear(in_features=512, out_features=512, bias=True)\n",
              "            (q_proj): Linear(in_features=512, out_features=512, bias=True)\n",
              "            (out_proj): Linear(in_features=512, out_features=512, bias=True)\n",
              "          )\n",
              "          (self_attn_layer_norm): LayerNorm((512,), eps=1e-05, elementwise_affine=True)\n",
              "          (activation_fn): SiLU()\n",
              "          (fc1): Linear(in_features=512, out_features=2048, bias=True)\n",
              "          (fc2): Linear(in_features=2048, out_features=512, bias=True)\n",
              "          (final_layer_norm): LayerNorm((512,), eps=1e-05, elementwise_affine=True)\n",
              "        )\n",
              "      )\n",
              "    )\n",
              "    (decoder): MarianDecoder(\n",
              "      (embed_tokens): Embedding(58089, 512, padding_idx=58088)\n",
              "      (embed_positions): MarianSinusoidalPositionalEmbedding(512, 512)\n",
              "      (layers): ModuleList(\n",
              "        (0-5): 6 x MarianDecoderLayer(\n",
              "          (self_attn): MarianAttention(\n",
              "            (k_proj): Linear(in_features=512, out_features=512, bias=True)\n",
              "            (v_proj): Linear(in_features=512, out_features=512, bias=True)\n",
              "            (q_proj): Linear(in_features=512, out_features=512, bias=True)\n",
              "            (out_proj): Linear(in_features=512, out_features=512, bias=True)\n",
              "          )\n",
              "          (activation_fn): SiLU()\n",
              "          (self_attn_layer_norm): LayerNorm((512,), eps=1e-05, elementwise_affine=True)\n",
              "          (encoder_attn): MarianAttention(\n",
              "            (k_proj): Linear(in_features=512, out_features=512, bias=True)\n",
              "            (v_proj): Linear(in_features=512, out_features=512, bias=True)\n",
              "            (q_proj): Linear(in_features=512, out_features=512, bias=True)\n",
              "            (out_proj): Linear(in_features=512, out_features=512, bias=True)\n",
              "          )\n",
              "          (encoder_attn_layer_norm): LayerNorm((512,), eps=1e-05, elementwise_affine=True)\n",
              "          (fc1): Linear(in_features=512, out_features=2048, bias=True)\n",
              "          (fc2): Linear(in_features=2048, out_features=512, bias=True)\n",
              "          (final_layer_norm): LayerNorm((512,), eps=1e-05, elementwise_affine=True)\n",
              "        )\n",
              "      )\n",
              "    )\n",
              "  )\n",
              "  (lm_head): Linear(in_features=512, out_features=58089, bias=False)\n",
              ")"
            ]
          },
          "metadata": {},
          "execution_count": 14
        }
      ]
    },
    {
      "cell_type": "code",
      "source": [
        "def back_translate_hausa(texts, device='cpu'):\n",
        "    # Hausa -> English\n",
        "    english_texts = translate(texts, ha_en_model, ha_en_tokenizer, device=device)\n",
…
